policy/anymal_c_flat/2025-05-24_12-10-50/exported/policy.pt (torch, 174326 bytes, 8 tensors)

weight f4 [128, 48]
0	0x3df69383	0.120398544
1	0x3e800d31	0.25010064
2	0xbda9f84f	-0.08299314
3	0x3ccfacc6	0.02535094
4	0xbd533dff	-0.051572796
5	0x3bed979f	0.0072507407
6	0xbe19664d	-0.14980431
7	0x3dbe25c6	0.092845485
8	0xbd7c257e	-0.061559193
9	0x3e26583a	0.16244593
10	0xbee814b7	-0.45328304
11	0x3e73afe7	0.2379757
12	0xbe8f361d	-0.27970973
13	0x3f0b6530	0.54451275
14	0x3e89acb3	0.26889572
15	0xbcbf83c8	-0.023378268
16	0x3ef84c4c	0.4849571
17	0x3db07157	0.08615368
18	0xbea57496	-0.3231551
19	0xbec84c16	-0.3912055
20	0x3e8d8183	0.27637872
21	0xbf1a3380	-0.6023483
22	0x3e5153ba	0.20442095
23	0x3e8705d9	0.2637165
24	0x3d60ccc2	0.054882772
25	0xbd6dfdbd	-0.05810331
26	0xbb499918	-0.0030761417
27	0xbaa0bb8c	-0.0012262925
28	0x3d88fa56	0.06688373
29	0xbdb8c59e	-0.090220675
30	0x3c7bcc34	0.01536851
31	0x3c52c79f	0.012864976
32	0x3ca8ed62	0.020621005
33	0xbcda2197	-0.026627345
34	0x3ca3ff40	0.020019174
35	0x3a30b7ea	0.00067412725
36	0xbd39946c	-0.04530756
37	0x3c9ff7d3	0.019527351
38	0x3d5edac6	0.054407857
39	0x3cdf1285	0.02723051
40	0x3c90371a	0.0176044
41	0xbe41f1df	-0.18939923
42	0x3e3fe72c	0.18740529
43	0x3cbf9c97	0.023390098
44	0xbd219732	-0.03945083
45	0xbc9ee7d6	-0.019397657
46	0xbe7991cc	-0.24372023
47	0x3d22661b	0.039648157
48	0xbe41c382	-0.18922237
49	0x3dd1be64	0.10241392
50	0x3cb9a916	0.022663634
51	0xbe1f4b04	-0.1555596
52	0xbe806caa	-0.25082904
53	0x3e8c4d9c	0.2740296
54	0xbd8bdc18	-0.06829089
55	0x3ed3166d	0.41228047
56	0x3dcb7da1	0.09936071
57	0xbda4b12f	-0.080416076
58	0xbe66a17e	-0.22522542
59	0xbeda15a4	-0.42594635
60	0xbe9d37bf	-0.30706593
61	0x3d5c4dc5	0.053785104
62	0x3e7f6291	0.24939944
63	0xbf20e4c8	-0.6284909
64	0xbdc77737	-0.09739535
65	0xbe9a9e5e	-0.3019895
66	0x3eae8fd9	0.34094122
67	0xbde4b710	-0.11167729
68	0x3e7c06bb	0.24611942
69	0xbe284e2b	-0.16436069
70	0xbd14fc1d	-0.036373246
71	0xbe266941	-0.16251089
72	0x3e06d6d6	0.13167891
73	0xbd40f416	-0.04710778
74	0xbce188e1	-0.02753109
75	0xbe272675	-0.16323264
76	0x3e480d0e	0.1953623
77	0x3b8f6b26	0.0043767868
78	0x3dbe01c8	0.092776835
79	0xbdf16c36	-0.11788218
80	0xbcd1d9bb	-0.025616517
81	0x3d0f1f6d	0.03494208
82	0xbd876bd8	-0.066123664
83	0xbd493409	-0.04912189
84	0x3dfdf964	0.12401083
85	0xbd4ce452	-0.05002243
86	0x3c82db15	0.015973607
87	0xbea86e8c	-0.3289684
88	0x3e0e0034	0.13867265
89	0xbe00ef69	-0.12591328
90	0x3d9c39c0	0.076282024
91	0xbd80e1a9	-0.06293041
92	0xbf17f1ca	-0.59353316
93	0xbe826b6f	-0.2547259
94	0x3ebfaec2	0.37438017
95	0x3e6e0ae4	0.23246342
96	0xbcc3b3f1	-0.023889514
97	0xbdc6bec6	-0.09704356
98	0xbf189967	-0.59609073
99	0x3d45d035	0.048294265
100	0x3dab26f3	0.08357038
101	0xbe7d719e	-0.24750373
102	0x3d9cc846	0.076553866
103	0xbeb878e4	-0.36029732
104	0xbdfbe9fd	-0.12300489
105	0x3cfc0503	0.030764109
106	0xbc5790bb	-0.013157065
107	0xbda2b5bd	-0.0794482
108	0x3e349f51	0.176389
109	0x3cfcf761	0.030879678
110	0x3e801530	0.25016165
111	0x39c3e05b	0.00037360456
112	0xbdeb7da2	-0.11498572
113	0xbf10ce94	-0.56565213
114	0x3e980a5f	0.29695413
115	0x3e5f1700	0.21786118
116	0x3ecf318c	0.4046749
117	0xbf3757e7	-0.71618503
118	0x3eca7107	0.39539358
119	0x3e145034	0.1448372
120	0x3da50296	0.08057134
121	0x3ddc39c2	0.10753204
122	0xbb8daf6d	-0.004323891
123	0xbdcd1703	-0.10014155
124	0xbac9baf7	-0.0015390803
125	0x3c2d66cc	0.010583591
126	0x3d354079	0.04425094
127	0x3de43b66	0.11144142
128	0x3e2bdf07	0.16784297
129	0xbd882edc	-0.06649563
130	0x3d334c5d	0.043773998
131	0x3d8d9586	0.06913285
132	0x3d3ce75a	0.04611907
133	0xbe2fa48d	-0.17152615
134	0x3dccce53	0.10000291
135	0xbc4013c8	-0.011723466
136	0x3e672b02	0.22575
137	0x3da6dd95	0.08147732
138	0x3d903c5e	0.07042764
139	0x3dc27ca1	0.09496427
140	0xbeaae071	-0.3337436
141	0xbe805458	-0.2506435
142	0x3ebfce70	0.37462187
143	0x3e08f884	0.13376051
144	0xbebd2379	-0.36941126
145	0x3d0d1cba	0.034451224
146	0x3eb7f720	0.3593073
147	0x3dee7ee5	0.11645297
148	0xbe7f6a18	-0.24942815
149	0x3dabd9e5	0.083911695
150	0xbc852672	-0.016253684
151	0xbf5fdf0d	-0.87449723
152	0x3c08eea6	0.0083576795
153	0x3ecd4116	0.4008872
154	0xbd8f0d99	-0.069850154
155	0x3e1d4770	0.15359282
156	0xbefd3282	-0.49452597
157	0x3f3e88b8	0.74427366
158	0x3efb0439	0.4902666
159	0x3cccfc4a	0.025022645
160	0x3e64ead2	0.22355202
161	0xbd82b1e1	-0.06381584
162	0x3e954ef6	0.29161805
163	0xbd8000fe	-0.06250189
164	0x3cc318ae	0.02381548
165	0xbe005232	-0.12531355
166	0xbe769bd0	-0.24082875
167	0x3c48aa33	0.01224761
168	0x3d03a9bd	0.032144297
169	0x3d0512a0	0.032488465
170	0xbb21a2ea	-0.0024663755
171	0xbd80b3a0	-0.06284261
172	0xbb1aca5e	-0.0023619155
173	0xbd94e387	-0.0726996
174	0x3dbe7e17	0.093013935
175	0xbd05fea5	-0.03271355
176	0xbd6ac6a2	-0.057318337
177	0xbdc654e2	-0.09684159
178	0x3d9765ad	0.0739244
179	0x3c89be58	0.016814396
180	0x3e16208e	0.14660856
181	0xbd10a0f1	-0.035309736
182	0x3e2452e7	0.1604725
183	0xbd9f1b14	-0.077688366
184	0xbda98d85	-0.08278946
185	0x3dc7ac9d	0.0974972
186	0x3d201b15	0.039088327
187	0x3d973fcd	0.07385216
188	0x3dc35de8	0.095393956
189	0xbe297bd1	-0.16551138
190	0xbe73d8bb	-0.23813145
191	0xbe179071	-0.14801194
192	0x3da17f81	0.078856476
193	0xbde01489	-0.10941417
194	0x3e191460	0.14949179
195	0xbdd31687	-0.10307031
196	0x3d890340	0.06690073
197	0xbd9f7977	-0.077868395
198	0x3dc565ad	0.09638534
199	0x3f5eea1f	0.8707599
200	0x3ccccb65	0.02499933
201	0x3d929e9b	0.07159158
202	0x3f0ff930	0.56239605
203	0xbd08487a	-0.033272244
204	0xbe896a8d	-0.26839104
205	0xbe93227a	-0.2873724
206	0xbf13b89b	-0.5770356
207	0xbf0d8c3d	-0.5529211
208	0xbe93f9c2	-0.28901488
209	0x3d84f787	0.064925246
210	0x3ee84b8a	0.45370132
211	0xbd351c33	-0.044216346
212	0xbe72d932	-0.23715666
213	0x3d72cd1a	0.05927763
214	0x3e25e297	0.16199718
215	0xbf027b73	-0.5096962
216	0x3d66d957	0.056359615
217	0xbd55aa56	-0.052164398
218	0xbd67cd32	-0.056592174
219	0xbd1b90e3	-0.03797997
220	0x3da7b204	0.08188251
221	0xbd3a42bb	-0.045473795
222	0x3d068678	0.032843083
223	0xbd10c94a	-0.035348214
224	0x3c9e0b13	0.01929239
225	0xbd33d72e	-0.043906383
226	0xbc9c44f4	-0.019075848
227	0x3c3002ee	0.010742886
228	0x3dbc2fda	0.091888145
229	0xbdc408d6	-0.09571998
230	0xbca1bfc4	-0.019744761
231	0x3e0800a1	0.1328149
232	0x3c36d876	0.011160007
233	0xbd0f7708	-0.035025626
234	0x3dcb1467	0.09916001
235	0xbd86d065	-0.06582717
236	0xbb8d7d49	-0.0043179137
237	0x3e2c8e4a	0.16851154
238	0x3c89b987	0.0168121
239	0xbddd874f	-0.10816824
240	0x3e053e89	0.13012137
241	0x3daae9c6	0.0834537
242	0xbe785d19	-0.24254264
243	0xbdb472ec	-0.08810982
244	0x3d146150	0.036225617
245	0xbeb92232	-0.361589
246	0xbdc5a05a	-0.09649725
247	0x3f2735d3	0.65316504
248	0xbddd95f1	-0.10819615
249	0xbd1e5e7b	-0.038664322
250	0xbd30b1a7	-0.043138172
251	0xbd753c8f	-0.059872206
252	0xbddc23c8	-0.10749012
253	0xbe4fb900	-0.20285416
254	0xbf3615c9	-0.7112699
255	0xbe917775	-0.2841145

bias f4 [128]
0	0xbd7370e8	-0.059433848
1	0xbd981d78	-0.07427496
2	0x3e85282e	0.26007217
3	0x3e0df609	0.13863386
4	0xbd9d7dd1	-0.07690013
5	0x3db24c8a	0.08706005
6	0x3e205ecf	0.15661167
7	0xbe2cdf4b	-0.16882055
8	0x3dbc9963	0.09208944
9	0x3d2f6544	0.042821184
10	0xbe32b900	-0.17453384
11	0x3c9d0e7b	0.019171944
12	0xbcb71b88	-0.022351995
13	0xbd4290c6	-0.047501348
14	0xbe11b741	-0.14230062
15	0xbd1fed60	-0.039044738
16	0x3dc004f9	0.093759485
17	0x3a09dd55	0.00052591163
18	0x3e1179dc	0.14206642
19	0xbe2f2beb	-0.17106597
20	0xbe22d516	-0.15901598
21	0xbe1fd25d	-0.15607591
22	0xbd568450	-0.052372277
23	0xbdf957a0	-0.12174916
24	0x3dbc7293	0.09201541
25	0x3d205bf2	0.039150186
26	0x3e2ce690	0.16884828
27	0xbe3a195b	-0.18173735
28	0xbd6b29a1	-0.057412747
29	0xbc2d9943	-0.0105956225
30	0x3d022399	0.03177223
31	0xbd63a6e9	-0.0555791
32	0xbe154c15	-0.14579804
33	0xbaa0cdbf	-0.0012268348
34	0x3de63ea8	0.112424195
35	0xbdbe33bd	-0.09287212
36	0xbe860687	-0.26176855
37	0xbd90dd51	-0.07073463
38	0xbe2c8211	-0.16846491
39	0x3c9204d9	0.017824577
40	0x3d52e2fc	0.051486
41	0x3df08933	0.11744919
42	0xbd6de563	-0.05808009
43	0xbcbd808f	-0.02313259
44	0x3db6bcf2	0.08922757
45	0xbdd13802	-0.10215761
46	0x3c3807e2	0.011232348
47	0xbdaa6885	-0.08320717
48	0x3e0b507b	0.1360492
49	0xbcd8aaf4	-0.026448704
50	0x3d8d5402	0.06900789
51	0x3d484a3b	0.048898917
52	0x3de3e511	0.11127675
53	0xbb1d5819	-0.002400881
54	0x3e0d3987	0.13791476
55	0xbcd2a375	-0.025712708
56	0x3d86d83e	0.06584214
57	0x3e0e3ecb	0.13891141
58	0x3c868659	0.016421484
59	0x3dba80d8	0.09106606
60	0x3dabe5fa	0.08393474
61	0x3e2010c2	0.15631393
62	0xbe19f9a8	-0.15036643
63	0xbd5e4e64	-0.054273978
64	0x3ca6ff5f	0.020385442
65	0xbe7073b5	-0.23481639
66	0x3da27a61	0.07933498
67	0xbdb0c30f	-0.086309545
68	0xbdd595ae	-0.1042894
69	0xbde9d943	-0.114183925
70	0x3d26316c	0.040574476
71	0xbdbaa705	-0.09113888
72	0x3d87229a	0.065983966
73	0x3db6790e	0.08909808
74	0x3e0ec0c3	0.1394072
75	0xbe474433	-0.1945961
76	0x3e746c2e	0.23869392
77	0xbe19478d	-0.149687
78	0x3d0cc2dd	0.034365524
79	0xbdeec9b9	-0.11659569
80	0xbe67d311	-0.22639109
81	0x3d8d65ef	0.06904208
82	0x3c9ad367	0.018899633
83	0x3e4db669	0.20089115
84	0x3c086541	0.008324922
85	0x3d8ebd8d	0.06969748
86	0x3d6554dd	0.055989135
87	0xbca03fc4	-0.019561656
88	0x3d523334	0.051318362
89	0xbdaef151	-0.08542121
90	0xbc8846c3	-0.016635304
91	0x3c996c6c	0.018728457
92	0xba34923f	-0.00068882474
93	0xbe2ab982	-0.16672328
94	0xbcdb0c3e	-0.026739236
95	0xbe26ff5f	-0.16308354
96	0xbd54285f	-0.051796313
97	0xbdf71bb7	-0.12065833
98	0xbce25eb6	-0.027633052
99	0x3da52905	0.080644645
100	0xbd9d074b	-0.07667407
101	0xbe106669	-0.14101566
102	0x3db7b506	0.08970074
103	0xbe323310	-0.17402291
104	0xbd94d5cf	-0.07267343
105	0xbd3af05e	-0.04563939
106	0x3dd0bf46	0.101927325
107	0x3d8f5ebb	0.0700049
108	0xbe6f7c48	-0.23387253
109	0xbde7368f	-0.11289703
110	0xbe1691dd	-0.1470408
111	0xbd9d183c	-0.07670638
112	0xbe25772d	-0.16158743
113	0xbc2ae75c	-0.010431137
114	0xbd38322b	-0.04496972
115	0xbd84de65	-0.06487731
116	0x3d316172	0.04330582
117	0x3d8773b9	0.06613869
118	0xbd887809	-0.0666352
119	0xbe04fa34	-0.1298607
120	0xbc63834d	-0.013886285
121	0xbe0622ab	-0.13099162
122	0xbe174721	-0.14773227
123	0x3e2dfce5	0.16991003
124	0x3d6506d7	0.055914726
125	0x3e285e45	0.16442211
126	0x3db9a054	0.09063783
127	0xbe5f82b9	-0.2182721

weight f4 [128, 128]
0	0x3e236c8c	0.15959376
1	0x3c0ab437	0.008465818
2	0x3cff2d41	0.031149508
3	0x3d868b59	0.06569547
4	0xbcf4e4b0	-0.029894203
5	0xbb928950	-0.0044719353
6	0xbda60708	-0.0810681
7	0xbdaf2c29	-0.08553345
8	0x3da3885a	0.07984991
9	0xbcbb10ab	-0.022835096
10	0x3d438d19	0.047741983
11	0xbd005e69	-0.031340037
12	0xbd18510b	-0.037186664
13	0xbdc6db43	-0.097097896
14	0x3e08ba4f	0.13352321
15	0x3d14c16b	0.03631727
16	0x3c885004	0.016639717
17	0xbe64d91c	-0.22348446
18	0xbe0e4b75	-0.13895972
19	0xbd73af6a	-0.05949346
20	0xbd5528a4	-0.05204071
21	0x3cd040d5	0.02542154
22	0xbe01030f	-0.12598823
23	0x3d38adb7	0.045087542
24	0xbdc383b1	-0.095466025
25	0x3b555d14	0.00325567
26	0xbdc2823d	-0.09497497
27	0xbe6ddd51	-0.23228957
28	0xbd8898f0	-0.066697955
29	0xbcc76eab	-0.024344763
30	0x3b95fe47	0.0045774314
31	0xbc14521b	-0.009052779
32	0xbd98d858	-0.07463139
33	0x3d67d56b	0.056600016
34	0x3dec772e	0.11546169
35	0xbd9c767f	-0.07639789
36	0xbda93e9e	-0.082638964
37	0x3dfb5851	0.122727044
38	0x3e0ab2bd	0.13544746
39	0xbd8a42fc	-0.067510575
40	0xbd5e0e57	-0.054212894
41	0xbdcf049c	-0.10108301
42	0x3e368067	0.17822419
43	0xbe29930f	-0.16560005
44	0xbda64366	-0.08118324
45	0xbde1ee05	-0.11031727
46	0x3e4b3300	0.19843674
47	0xbdda70d4	-0.106660515
48	0x3e306ad0	0.17228246
49	0x3d28d86a	0.041222014
50	0x3de8797e	0.11351298
51	0x3d9cc7c8	0.07655293
52	0x3c2ae810	0.010431305
53	0xbdff1a28	-0.12456161
54	0x3d850b52	0.064963
55	0xbe3aedac	-0.18254727
56	0x3dcd4495	0.100228466
57	0x3ce9f5ed	0.02855965
58	0xbbe1b0a5	-0.0068875127
59	0x3df555b5	0.11979238
60	0x3db0e970	0.08638275
61	0xbdb640b2	-0.088990584
62	0xbd39f587	-0.04540017
63	0xbd8191b7	-0.06326621
64	0x3ccd30bb	0.02504765
65	0x3cf37ad7	0.02972166
66	0x3dcccc6c	0.09999928
67	0xbda9b578	-0.082865655
68	0x3e47c749	0.19509615
69	0x3ce8cc28	0.028417662
70	0x3d800481	0.06250859
71	0xbd052bd0	-0.032512486
72	0xbcfff341	-0.031243922
73	0x3de3988d	0.11113081
74	0x3d47b22e	0.04875391
75	0xbdd85822	-0.10563685
76	0x3c2757f3	0.01021384
77	0x3d23821d	0.039919008
78	0xbba1b51b	-0.0049349195
79	0xbd931828	-0.07182342
80	0x3d759149	0.059953008
81	0xbd527454	-0.05138047
82	0x3e0198e4	0.1265598
83	0xbe517d40	-0.20457935
84	0x3d93aa37	0.072102
85	0x3d949dd1	0.072566636
86	0x3ccdfe6b	0.02514573
87	0xbd93950b	-0.07206162
88	0xbcb5bf63	-0.022185987
89	0x3e08a807	0.13345347
90	0xbe0630f1	-0.13104607
91	0xbe340e8c	-0.17583674
92	0x3e41eb98	0.18937528
93	0x3e38716c	0.18012017
94	0x3cb4b411	0.022058519
95	0x3ca2ebb0	0.019887775
96	0x3dfc1ae7	0.12309819
97	0x3d289901	0.04116154
98	0xbe2b4b72	-0.16727999
99	0xbdaac01a	-0.08337422
100	0x3d2a9ba7	0.041652348
101	0xbdc0ef6d	-0.09420667
102	0xbe092ba6	-0.13395557
103	0x3da0ab49	0.0784517
104	0x3d9eed96	0.0776016
105	0x3c4e0419	0.012574219
106	0xbe029f55	-0.12756093
107	0x3e0be6a9	0.13662209
108	0xbb50db45	-0.0031868976
109	0xbdba0fce	-0.09085046
110	0xba79fc78	-0.0009536217
111	0xbdf6cf1f	-0.12051224
112	0x3e066145	0.13123043
113	0x3e0e1662	0.13875726
114	0xbdf44f11	-0.11929143
115	0xbdc01d3c	-0.09380576
116	0xbd638adf	-0.05555236
117	0x3e46aa83	0.19400983
118	0x39b141a4	0.00033808977
119	0xbd40b9e7	-0.04705229
120	0x3d822369	0.0635441
121	0xbca35e9d	-0.019942576
122	0x3d13aa8f	0.03605133
123	0x3e2921b4	0.16516763
124	0x3d7df71e	0.062003247
125	0x3e304c34	0.17216569
126	0xbd7d2fb2	-0.061813064
127	0x3d262099	0.04055843
128	0x3e5681e2	0.20947984
129	0x3e5415f3	0.20711498
130	0x3df2d1dd	0.118564345
131	0x3e0c5cf2	0.13707331
132	0xbe154bc1	-0.14579679
133	0xbd8b9540	-0.068155766
134	0xbd6a2562	-0.057164557
135	0x3e22767f	0.15865515
136	0x3da4e278	0.08051008
137	0x3dc58d6d	0.096461155
138	0xbe0237c7	-0.1271659
139	0xbbf245ad	-0.00739356
140	0xbe225d49	-0.15855898
141	0xbdfa4721	-0.12220598
142	0x3c0d402a	0.008621255
143	0xbdf83113	-0.12118735
144	0xbe37e4a7	-0.17958318
145	0xbe120d2c	-0.14262837
146	0xbdfba73c	-0.12287757
147	0xbda46be4	-0.08028391
148	0xba7f7f49	-0.0009746445
149	0xbdf5728c	-0.11984739
150	0xbcd33374	-0.02578137
151	0xbdc2793c	-0.0949578
152	0x3c316825	0.010828053
153	0xbca6d357	-0.020364447
154	0x3e198550	0.14992261
155	0x3d31e641	0.043432478
156	0xbd1e242e	-0.038608722
157	0x3e170aed	0.14750262
158	0xbc2389c5	-0.009981577
159	0x3e431df2	0.19054392
160	0xbdd24ad7	-0.10268181
161	0x3d0090e1	0.031388167
162	0xbd8aaaf8	-0.06770891
163	0xbcbbfbc3	-0.022947198
164	0xbda2b43a	-0.07944532
165	0x3dd0bb66	0.101919934
166	0x3cf82abc	0.030293815
167	0xbdadd018	-0.08486956
168	0x3d5ce1a6	0.053926133
169	0xbe424504	-0.1897164
170	0xbc2f0148	-0.010681458
171	0xbdd63bab	-0.104605995
172	0x3d2f07f5	0.042732198
173	0x3de4a781	0.11164761
174	0x3e69704b	0.22796743
175	0xbd214ec3	-0.039381754
176	0xbd0ac483	-0.033878814
177	0xbd312444	-0.043247476
178	0x3e3b85b7	0.18312727
179	0x3b22f50c	0.0024865298
180	0x3c09ae42	0.008403363
181	0xbd838a7a	-0.06422897
182	0x3e3bb0bd	0.18329139
183	0x3d85e1b5	0.06537191
184	0xbce32743	-0.027728682
185	0x3cab7c17	0.020933194
186	0x3de20ce9	0.11037619
187	0x3cab4af4	0.020909764
188	0x3d10bf59	0.035338733
189	0xbcedff18	-0.029052302
190	0x3da56bd2	0.08077206
191	0x3da4db15	0.08049599
192	0xbd0d0f5d	-0.03443848
193	0x3e0f9a75	0.14023764
194	0x3e110028	0.14160216
195	0x3d609690	0.054831088
196	0xbda887d0	-0.08229029
197	0x3dacb54f	0.08433019
198	0x3e28d5cd	0.16487809
199	0xbd67a5b9	-0.05655453
200	0x3e42d38b	0.1902601
201	0x3d570ce9	0.052502546
202	0xbdccb362	-0.09995152
203	0x3d1e6f25	0.038680214
204	0xbd0687d0	-0.032844365
205	0x3e10732e	0.14106438
206	0xbe3b43a9	-0.18287529
207	0xbcfc39e4	-0.030789323
208	0xbc972ed5	-0.018454948
209	0xbb81802b	-0.0039520464
210	0x3e16562c	0.1468131
211	0xbca10855	-0.019657293
212	0xbc94a6d4	-0.018145956
213	0xbd7968a7	-0.06089082
214	0x3e24bb9a	0.1608719
215	0x3cb66c7e	0.02226853
216	0x3ca2608b	0.019821426
217	0x3cc805f7	0.024416907
218	0x3d6325ad	0.055455852
219	0x3db5e2a4	0.08881119
220	0x3d384f01	0.04499722
221	0x3ce0bca6	0.027433705
222	0x3cda7302	0.026666168
223	0xbe0ee466	-0.13954315
224	0xbd0cb9d8	-0.034356922
225	0xbda8b97b	-0.082385026
226	0x3e020395	0.12696679
227	0x3e0a0621	0.134789
228	0xbd092cc0	-0.033489943
229	0x3dca6272	0.09882058
230	0xbd825192	-0.063632146
231	0xbd41735d	-0.04722916
232	0x3e14c497	0.14528118
233	0xbcb08afb	-0.021550646
234	0x3b93ff19	0.004516494
235	0x3dfe156f	0.12406432
236	0xbe3d78cd	-0.18503113
237	0xbc83ee5c	-0.01610487
238	0x3e54adb6	0.2076939
239	0xbd29c729	-0.0414497
240	0x3d625da0	0.05526507
241	0xbe13da1a	-0.14438668
242	0xbda6c02c	-0.081421226
243	0x3d9c25b1	0.076243766
244	0x3d257854	0.040397957
245	0x3d1de87f	0.038551804
246	0x3e0b58e8	0.13608134
247	0xbdb976b2	-0.090558425
248	0x3e120fa6	0.14263782
249	0xbdb0dede	-0.086362585
250	0xbd88d6ed	-0.06681619
251	0xbd2b70bc	-0.04185556
252	0x3e667137	0.22504126
253	0xbda27ed4	-0.07934347
254	0xbb84f37e	-0.004057347
255	0xbd736af4	-0.05942817

bias f4 [128]
0	0xbcf9d2e0	-0.03049606
1	0x3d59b345	0.05314948
2	0xbe14a6e1	-0.14516784
3	0x3bc9716e	0.006147555
4	0xbd8109b0	-0.06300676
5	0xbcaf3d8e	-0.021391656
6	0xbd7ac83d	-0.06122612
7	0x3dc8de27	0.09807997
8	0xbdca6a9a	-0.09883614
9	0xbce7ccef	-0.028295962
10	0xbe0c2671	-0.13686539
11	0xbdd04158	-0.10168713
12	0xbe30f252	-0.17279938
13	0xbde3bd46	-0.111200854
14	0x3c3df6e9	0.0115945125
15	0xbd90da6d	-0.070729114
16	0xbd92f897	-0.07176321
17	0x3c50912f	0.012729927
18	0xbc8612dc	-0.016366415
19	0xbc060013	-0.008178729
20	0xbe51c84d	-0.20486565
21	0xbd888f1f	-0.06667923
22	0xbd08bcb1	-0.033383075
23	0x3d11a742	0.0355599
24	0xbe0b2b50	-0.13590741
25	0xbd7be858	-0.061500877
26	0xbc0aae9c	-0.008464482
27	0xbe1f8751	-0.15578963
28	0x3d611b88	0.054957896
29	0xbd404368	-0.046939284
30	0xbd40d920	-0.047082067
31	0xbe3981c1	-0.18115903
32	0x3d795c9e	0.060879342
33	0x3bf84704	0.007576825
34	0xbce447b3	-0.02786622
35	0xbd714fd5	-0.058914024
36	0xbdeabf2b	-0.11462244
37	0xbd666b31	-0.05625457
38	0xbe3c323f	-0.18378542
39	0xbd8d4a7e	-0.06898974
40	0xbd860a71	-0.0654496
41	0xbe59f537	-0.21284948
42	0xbdb4c9a5	-0.08827523
43	0xbdc7eecd	-0.097623445
44	0xbdf0f4a0	-0.117654085
45	0xbd546769	-0.051856432
46	0xbe15efd7	-0.14642273
47	0xbdb3426d	-0.08752904
48	0x3c3bb5d3	0.0114569245
49	0xbe0c90d0	-0.13727117
50	0xbb910e5b	-0.00442676
51	0xbe1c9729	-0.15292038
52	0xbd337f74	-0.04382272
53	0xbdd05573	-0.10172548
54	0xbe0f3b40	-0.13987446
55	0xbc6c3e04	-0.014419083
56	0xbdd3a607	-0.103344016
57	0xbcbaca2c	-0.022801481
58	0xbcff25e1	-0.031145992
59	0xbd917ba0	-0.07103658
60	0xbbf1681b	-0.0073671467
61	0xbe2c8500	-0.1684761
62	0xbe692370	-0.22767425
63	0x3d1d6281	0.03842402
64	0xbd9ff67d	-0.07810686
65	0xbd7e17f8	-0.062034577
66	0xbd0ca1bc	-0.03433393
67	0xbd9ebb08	-0.07750517
68	0x3d3cf244	0.04612948
69	0xbe07906c	-0.13238686
70	0x3d43872b	0.047736328
71	0x3c39b3b3	0.011334348
72	0x3cc63802	0.024196628
73	0x3d9b29d4	0.075763375
74	0xbd3550b9	-0.044266436
75	0x3d079ddf	0.033109542
76	0xbcbd6306	-0.023118507
77	0xbe3bb522	-0.18330815
78	0xbd261306	-0.040545486
79	0xbe149f2d	-0.14513846
80	0xbe43e7d9	-0.19131412
81	0xbd1afc11	-0.037838046
82	0xbd172e81	-0.036909584
83	0xbdb633ee	-0.088966236
84	0x3ceafd62	0.028685275
85	0x3e0773c4	0.13227755
86	0xbd1d48da	-0.038399555
87	0xbde6c00d	-0.112670995
88	0xbdfcb93d	-0.12340019
89	0xbd05d6e4	-0.03267564
90	0x3c80a079	0.01570152
91	0xbddfd9db	-0.109302245
92	0xbe37b21b	-0.17939036
93	0xbe1eb979	-0.1550044
94	0x3c75b779	0.014997357
95	0xbe6d2255	-0.23157628
96	0xbcc9b476	-0.024622183
97	0xbc48ef53	-0.012264091
98	0x3ce8711c	0.028374247
99	0xbc4f215b	-0.01264223
100	0xbda56d8b	-0.08077534
101	0xbdaacce5	-0.08339862
102	0xbd411946	-0.047143243
103	0xbd979077	-0.07400601
104	0xbd34cd63	-0.044141185
105	0xbe29d7a6	-0.1658617
106	0xbd87a11a	-0.066225246
107	0xbe60d7a6	-0.21957263
108	0xbe1e6100	-0.1546669
109	0xbe80a402	-0.25125128
110	0xbdb14cde	-0.086572394
111	0xbd15ba39	-0.03655455
112	0x3c9ae287	0.018906845
113	0xbc0523f2	-0.008126246
114	0xbd1f0e62	-0.038832076
115	0xbd837c29	-0.06420166
116	0xbe14edf2	-0.14543894
117	0x3d24bb04	0.040217414
118	0xbe07d039	-0.13263024
119	0xbe4c07dd	-0.19924875
120	0xbe47514a	-0.19464603
121	0xbdbc53c3	-0.09195664
122	0xbd752312	-0.0598479
123	0xbdf8a4ba	-0.12140794
124	0x3d2b9b13	0.041895937
125	0xbe026786	-0.12734804
126	0xbe451524	-0.19246346
127	0xbdd13695	-0.10215489

weight f4 [128, 128]
0	0x3d15fed2	0.03661997
1	0xbd10c322	-0.035342343
2	0xbb82e92e	-0.0039950823
3	0xbda9194c	-0.08256778
4	0xbcba4457	-0.022737665
5	0xbd02f152	-0.031968422
6	0xbd389499	-0.04506359
7	0xbd506767	-0.050879862
8	0x3de626e8	0.112378895
9	0x3cffa54f	0.031206755
10	0x3d70a34a	0.058749475
11	0xbdd5c2da	-0.104375556
12	0x3dbc6325	0.09198598
13	0x3de1ea94	0.1103107
14	0x3d71516e	0.058915548
15	0x3d6b022f	0.05737513
16	0xbce1db25	-0.027570317
17	0xbdb8e7fe	-0.09028624
18	0xbd207a3b	-0.039179068
19	0x3dd9fabd	0.10643528
20	0x3da536a7	0.08067065
21	0xbc185190	-0.00929679
22	0xbcfaa17c	-0.03059458
23	0xbc0c6ece	-0.00857134
24	0x3d40c513	0.047062945
25	0x3e1459d3	0.1448739
26	0x3dde181a	0.10844441
27	0x3d29599a	0.041345216
28	0x3c7bc12c	0.01536588
29	0xbca263da	-0.019823004
30	0xbd97807d	-0.07397554
31	0xbdfc1182	-0.12308027
32	0xbdb69cee	-0.08916651
33	0x3d6045ba	0.054753996
34	0x3dbcab51	0.092123635
35	0x3d8d3aa0	0.068959475
36	0x3d687270	0.05674976
37	0x3c39eaa5	0.0113474475
38	0xbd0c6a88	-0.034281284
39	0x3c07f06f	0.00829707
40	0x3c86c73d	0.016452426
41	0x3ba54d94	0.0050446484
42	0x3dc7df1f	0.09759354
43	0x3c970edb	0.0184397
44	0x3d3c4f04	0.045973793
45	0xbdaa3175	-0.083102144
46	0x3ddecf77	0.108794145
47	0xbc39e862	-0.011346908
48	0xbc5ecedd	-0.013599125
49	0x3d713ecb	0.058897775
50	0xba9508f2	-0.0011370464
51	0x3dce183c	0.10063216
52	0x3d91d18b	0.07120045
53	0x3c263733	0.010144996
54	0x3cb41933	0.021984672
55	0xbd7b473d	-0.061347235
56	0x3c8ac2e6	0.016938638
57	0xbc8d7052	-0.017265473
58	0x3c25dc0b	0.010123263
59	0xbcecd013	-0.028907811
60	0x3d51e847	0.051246908
61	0x3dbebb90	0.093131185
62	0xbcafbbf5	-0.02145193
63	0x3b85e00f	0.0040855478
64	0x3e0ba2d4	0.13636333
65	0x3be33aac	0.0069344845
66	0x3dddd642	0.10831882
67	0x3db71919	0.08940334
68	0xbc14f6b4	-0.009092022
69	0x3bcfc394	0.0063404534
70	0xbd595249	-0.05305699
71	0xbd8cf993	-0.0688354
72	0x3ba62ce6	0.0050712703
73	0x3d760d94	0.060071543
74	0x3ccb97f2	0.024852727
75	0xbd08bd81	-0.03338385
76	0xbcfdc962	-0.030979816
77	0x3e1fd1e5	0.15607412
78	0xbcca8881	-0.024723293
79	0xbd82b0c5	-0.06381372
80	0x3c4468db	0.01198789
81	0xbdaef2f6	-0.08542435
82	0x3cfdfb1c	0.031003527
83	0xbca5635d	-0.020188982
84	0xbbcd1ab6	-0.0062592877
85	0xbd9eca5f	-0.07753443
86	0x3db3839e	0.08765338
87	0xbc90c1e6	-0.017670583
88	0xbdab2f56	-0.08358638
89	0x3c854478	0.016268
90	0x3d3d7a0b	0.046258967
91	0x3cc30d28	0.023809984
92	0xbe0a5f57	-0.13512932
93	0x3cef1633	0.02918539
94	0x3d029c5c	0.031887397
95	0x3d0d962e	0.03456705
96	0xbd90a7a0	-0.07063222
97	0x3d206fca	0.03916911
98	0x3d618679	0.055059884
99	0x3dc7ed82	0.09762098
100	0x3d9b034a	0.07568987
101	0x3d8b0e24	0.067898065
102	0xbd87c29a	-0.06628914
103	0x3cb831b1	0.022484632
104	0x3d314d31	0.043286506
105	0xbd02f476	-0.031971417
106	0x3d712b4a	0.058879174
107	0xbc36378e	-0.011121644
108	0xbcd395ad	-0.025828207
109	0xbd501f34	-0.050811008
110	0x3cd1ddf6	0.025618535
111	0xbd4fea1c	-0.050760373
112	0x3d8a16c2	0.06742622
113	0xbc8510e8	-0.016243413
114	0x3cb903d4	0.022584833
115	0x3d19ad0d	0.03751855
116	0xbcc72ffd	-0.024314875
117	0xbd608275	-0.054811914
118	0xbd01ecab	-0.031719845
119	0x3bca7959	0.0061790165
120	0x3dcecfcf	0.1009823
121	0x3dcbba66	0.09947662
122	0x3db53a1e	0.088489756
123	0x3ce0c032	0.027435396
124	0x3d0f1f15	0.03494175
125	0xbd20bc3f	-0.039242025
126	0xbd3f2b14	-0.046671942
127	0xbe024447	-0.12721358
128	0xbdac662e	-0.08417927
129	0x3dfbb9ae	0.12291275
130	0x3dad9cdd	0.08477185
131	0xbd1719dd	-0.0368899
132	0x3d44749a	0.047962762
133	0xbd52a20d	-0.051424075
134	0xbcb549fe	-0.022130009
135	0xbdbdb93c	-0.09263846
136	0xbd05390d	-0.03252511
137	0xbd499f3c	-0.049224123
138	0x3d19eb8f	0.03757816
139	0x3cb365f1	0.021899195
140	0xbc695fdd	-0.014244047
141	0x3d08d2dc	0.033404216
142	0x3c8fb15a	0.017540623
143	0x3d417f30	0.047240436
144	0xbd93114e	-0.07181035
145	0x3c8890bc	0.016670577
146	0x3dbffd54	0.093744904
147	0xbd86b25e	-0.065769896
148	0xbe1fb3ff	-0.15596007
149	0xbbea52a4	-0.007150965
150	0xbe0551c4	-0.13019472
151	0x3cb073a0	0.02153951
152	0x3db7bddc	0.0897176
153	0x3cbb532d	0.02286681
154	0xbd99a39c	-0.07501909
155	0xbda5e5e1	-0.081004865
156	0xbd453f27	-0.04815593
157	0xbe0caead	-0.13738509
158	0x3c8034af	0.015650121
159	0xbdc3a80b	-0.09553536
160	0x3c8e2322	0.017350737
161	0xbd38270d	-0.044959117
162	0xbd928cb5	-0.07155744
163	0x3d85c404	0.06531528
164	0x3e0743f9	0.13209523
165	0xbc89ac09	-0.016805666
166	0xbd862d67	-0.065516286
167	0xbd85946f	-0.06522452
168	0x3c4800ae	0.012207193
169	0xbd525d3e	-0.051358454
170	0xbdb6b604	-0.089214355
171	0xbd25f452	-0.040516205
172	0xbd67697c	-0.056497082
173	0x3b121a97	0.002229368
174	0xbe4c3164	-0.19940716
175	0x3e1c2d23	0.15251593
176	0xbc4e3b9c	-0.012587454
177	0xbd8c0326	-0.06836538
178	0x3ddfd0c7	0.10928493
179	0xbdbb10b2	-0.09134044
180	0xbd303eb0	-0.043028533
181	0xbc68deb1	-0.01421325
182	0xbd9b3b07	-0.07579618
183	0x3d964741	0.07337809
184	0xbe0c9711	-0.13729502
185	0xbca9cdae	-0.020727959
186	0x3d2510bd	0.040299166
187	0xbdb5ed29	-0.08883125
188	0xbe0185a7	-0.1264864
189	0xbd391cc7	-0.04519346
190	0xbdbd5fb5	-0.0924677
191	0xbe32bc3c	-0.17454618
192	0xbcf364f3	-0.029711222
193	0x3da50aa6	0.08058672
194	0xbcb8623d	-0.022507781
195	0x3c06ed21	0.008235247
196	0xbcc0ec85	-0.023550281
197	0xbdc6b616	-0.09702699
198	0x3c271ad8	0.010199271
199	0x3d7da8f1	0.061928693
200	0x3d702bcd	0.05863552
201	0x3dccb741	0.099958904
202	0x3ccce9c2	0.025013808
203	0xbd8a1c91	-0.0674373
204	0x3c8ac558	0.016939804
205	0xbc4a4f30	-0.012347981
206	0xbdcb6a7f	-0.09932422
207	0xbda60f56	-0.08108394
208	0x3c680928	0.014162339
209	0x3ce46a73	0.02788279
210	0xbe06840a	-0.13136306
211	0x3c9528ff	0.018208025
212	0x3d6f46c9	0.058417115
213	0x3d4c195d	0.049828876
214	0xbd23e31d	-0.040011514
215	0x3dc000ec	0.09375176
216	0xbc98ef55	-0.01866881
217	0x3dce5ec4	0.10076669
218	0xbe54d5aa	-0.20784631
219	0xbdf8f575	-0.12156192
220	0xbdb53dfa	-0.08849712
221	0xbcbbb502	-0.02291346
222	0x3cf6b121	0.030113759
223	0x3cba0292	0.022706304
224	0x3d4b106f	0.04957622
225	0x3c1c15dc	0.009526696
226	0xbd03c116	-0.032166563
227	0x3c4c3a30	0.012465045
228	0xbca9a4e3	-0.020708507
229	0x3da1c3a1	0.078986414
230	0x3cd5e2a9	0.026109057
231	0xbd85b7cf	-0.06529199
232	0xbe07e24c	-0.13269919
233	0x3d515a55	0.051111538
234	0xbc884924	-0.016636439
235	0x3dabae22	0.083828226
236	0x3d410a4f	0.04712897
237	0x3c99e64f	0.018786578
238	0xbe245c2c	-0.16050786
239	0x3df1938e	0.11795722
240	0xbd96ab04	-0.073568374
241	0xbe50e43a	-0.20399562
242	0x3d525724	0.051352635
243	0xbdd0096f	-0.10158049
244	0xbdb3f327	-0.08786612
245	0xbc73ebc3	-0.014887753
246	0xbda19809	-0.078903265
247	0xbd2f561d	-0.042806733
248	0x3c939f58	0.018020317
249	0xbe5d1a08	-0.21591961
250	0xbcc050e3	-0.02347607
251	0x3c92f638	0.017939672
252	0xbd40f5eb	-0.047109526
253	0x3df94a20	0.12172341
254	0x3cb73e2d	0.022368515
255	0xbdf4f472	-0.11960687

bias f4 [128]
0	0x3e0d6bf0	0.13810706
1	0xbd3e659f	-0.046483632
2	0x3ccaf959	0.024777101
3	0xbe63ddcf	-0.22252582
4	0xba5068b2	-0.0007950171
5	0x3dc03619	0.09385318
6	0xbdb4e7f4	-0.08833304
7	0x3c8b3120	0.016991198
8	0xbdfb9da4	-0.12285927
9	0xbde2ca41	-0.11073733
10	0x3d4f9d89	0.050687347
11	0xbc692eb7	-0.014232329
12	0xbd8488e4	-0.06471422
13	0xbba46ca8	-0.0050178356
14	0x3d84e9d3	0.06489911
15	0x3c5ac238	0.013351969
16	0xbdedc008	-0.11608893
17	0x3d78be29	0.060728226
18	0x3d14f657	0.03636774
19	0x3d19a540	0.03751111
20	0xbdcab40f	-0.09897625
21	0xbe33a8e1	-0.17544891
22	0xbbe641ae	-0.0070268726
23	0xbe3322f2	-0.174938
24	0xbc525ffe	-0.012840269
25	0x3dab0255	0.08350054
26	0xbe2ae99a	-0.16690674
27	0xbda0550c	-0.078287214
28	0xbe863c7c	-0.2621802
29	0xbe6a54f9	-0.22883977
30	0xbe0d389f	-0.1379113
31	0x3c7ed304	0.01555324
32	0xbe07e403	-0.13270573
33	0x3d110564	0.03540553
34	0x3c35f56c	0.011105876
35	0xbd27a471	-0.040928308
36	0x3e091d42	0.13390067
37	0xbd6c9166	-0.05775585
38	0xbdb659d5	-0.08903853
39	0xbdffb910	-0.1248647
40	0xbe9bde67	-0.30443117
41	0x3dc83b82	0.09776975
42	0xbe189559	-0.14900722
43	0xbe0b5552	-0.13606766
44	0x3cbf12a6	0.023324322
45	0xbe25963d	-0.16170593
46	0xbd2fac87	-0.042889144
47	0xbd304913	-0.04303844
48	0xbd6b6dae	-0.057477646
49	0xbce2f6c4	-0.027705558
50	0xbda45172	-0.08023347
51	0x3d37a25d	0.044832576
52	0xbe060e69	-0.13091435
53	0xbdcac355	-0.09900538
54	0xbd703353	-0.058642697
55	0x3d3f5d53	0.04671986
56	0x3d257cb5	0.040402133
57	0x3c96e080	0.018417597
58	0xbe0a9ab0	-0.13535571
59	0x3cef0122	0.029175345
60	0xbe3183eb	-0.17335479
61	0x3d67d829	0.05660263
62	0xbca6209b	-0.02027922
63	0x3dc67ece	0.09692155
64	0xbde23d1d	-0.11046813
65	0xbd0e04c8	-0.03467253
66	0xbdbfe4b2	-0.09369792
67	0xbd91f187	-0.07126146
68	0xbea98882	-0.3311196
69	0xbe188b43	-0.14896874
70	0x3dc6f4be	0.097146496
71	0xbe051691	-0.1299689
72	0x3de30364	0.11084631
73	0x3d9e6941	0.07734919
74	0x3ddecd4b	0.10879
75	0xbb60468e	-0.0034221741
76	0x3d6f68c0	0.058449507
77	0xbe290b10	-0.16508126
78	0xbe9f8c77	-0.31161854
79	0x3ced437c	0.028962843
80	0xbe3d9afd	-0.18516155
81	0xbe95f14d	-0.2928566
82	0xbd95bec1	-0.07311774
83	0xbd3b58f8	-0.045739144
84	0xbe6fae43	-0.2340632
85	0xbd9d1969	-0.07670862
86	0xbccbc058	-0.02487199
87	0xbddda3a7	-0.1082223
88	0xbdfdd253	-0.12393632
89	0x3b07c91b	0.0020719233
90	0xbe2560ed	-0.16150256
91	0xbe8a97b5	-0.27068868
92	0x3d457a93	0.0482126
93	0xbd8e0896	-0.069352314
94	0xbccc2f98	-0.024925038
95	0xbd3eed76	-0.04661318
96	0xbe2062d9	-0.15662707
97	0xbe4d660a	-0.20058456
98	0x3d55351c	0.052052602
99	0xbd5bd3b2	-0.053668685
100	0xbc1592be	-0.009129224
101	0xbe2aed96	-0.16692194
102	0xbda87f66	-0.08227424
103	0xbd4c129f	-0.049822446
104	0x3d53a882	0.051674373
105	0xbd89def1	-0.06731976
106	0x3d57844b	0.0526164
107	0x3dceaedf	0.10091948
108	0xbe3abbf5	-0.18235762
109	0x3d886ded	0.06661592
110	0x3c7ff9a3	0.015623483
111	0xbe0ee054	-0.13952762
112	0x3c9266b0	0.01787123
113	0xbe1c944b	-0.15290944
114	0xbc089623	-0.008336577
115	0x3c20e941	0.009821237
116	0xbe0ab6f6	-0.13546357
117	0xbda15af8	-0.07878679
118	0x3d61ccdc	0.05512701
119	0x3d0fb9ad	0.035089184
120	0xbe0ff571	-0.14058472
121	0xbc6317fe	-0.013860701
122	0xbe16a38d	-0.14710827
123	0xba05d26e	-0.0005104904
124	0x3c4ea960	0.012613624
125	0xbe3ecf3a	-0.18633738
126	0x3b7dd601	0.0038732293
127	0xbd16fb35	-0.036860663

weight f4 [12, 128]
0	0xbd1a4945	-0.03766753
1	0xbcc1b8a8	-0.023647621
2	0xba80bad8	-0.0009821309
3	0x3a7e143a	0.0009692345
4	0xbc0ac66b	-0.008470158
5	0xbcd6dbfd	-0.026227945
6	0x3cbfaeec	0.023398839
7	0xbc09dad6	-0.008413991
8	0x3d343aa6	0.044001244
9	0x3d6baeae	0.057539634
10	0xbc94dfb0	-0.018173069
11	0x3cf51877	0.029918892
12	0x3cd1c7c9	0.02560796
13	0xbd36ebbc	-0.044658408
14	0xbcf6917d	-0.030098671
15	0x3cab08e5	0.020878265
16	0x3d8ae76c	0.067824215
17	0xbd0b0f7a	-0.033950306
18	0xbbf3724f	-0.007429398
19	0x3bd580ab	0.0065155826
20	0x3c80f1fd	0.015740389
21	0x3c572996	0.013132473
22	0x3929a874	0.0001617985
23	0xbcb9e988	-0.022694364
24	0xbc9551d2	-0.018227492
25	0x3c25d2c2	0.010121049
26	0x3d5bebb6	0.05369159
27	0x3d44538d	0.047931243
28	0xbce63dab	-0.028105577
29	0x3d0a9b8c	0.033839747
30	0xbcecd0f9	-0.02890824
31	0x3dcebf8c	0.100951284
32	0x3c91bd12	0.017790351
33	0xbd38d096	-0.045120798
34	0xbd6ee97b	-0.058328133
35	0x3c55f970	0.013059959
36	0xbdc0f305	-0.09421352
37	0x38f9aa3d	0.000119049546
38	0x3d50d5e7	0.050985243
39	0xbd735965	-0.059411425
40	0x3d9534b0	0.0728544
41	0xbd824013	-0.063598774
42	0xbde88237	-0.113529615
43	0x3d001bb3	0.031276416
44	0x3caa4a37	0.020787342
45	0xbbd85500	-0.0066019297
46	0xbc03b16d	-0.008037907
47	0x3ba834a2	0.0051332274
48	0xbc2a2d59	-0.010386788
49	0xbc4c7518	-0.012479089
50	0x3d21b4e3	0.039479148
51	0xbd3b86fa	-0.04578302
52	0xbc8f63e1	-0.01750368
53	0xbd384f88	-0.044997722
54	0xbca79a2b	-0.020459255
55	0xbd651363	-0.05592669
56	0x3c729745	0.014806573
57	0x3c2f0238	0.010681681
58	0xbb12386b	-0.002231146
59	0xbcd01177	-0.025398953
60	0x3d6e8808	0.0582352
61	0x3baed815	0.0053358176
62	0xbe0b8748	-0.13625824
63	0x3ab472cf	0.0013767126
64	0x3d7c1e4d	0.061552335
65	0x3c2c65c6	0.010522312
66	0x3a62714e	0.00086380995
67	0xbd4fdc1b	-0.05074702
68	0x3d2e2d3c	0.042523608
69	0x3d8d28e5	0.06892566
70	0xbbc6db3d	-0.0060686157
71	0x3afcea3c	0.0019295882
72	0xbb9a851e	-0.004715576
73	0xbccd885f	-0.02508944
74	0x3c907630	0.017634481
75	0x3bb00265	0.005371379
76	0xbafbf4a5	-0.001922269
77	0x3ce43e0c	0.027861618
78	0x3d1a620b	0.037691157
79	0xbaa39495	-0.0012480194
80	0x3d337d05	0.0438204
81	0xbd048ec8	-0.03236273
82	0x3cceff94	0.025268354
83	0xbd02268f	-0.031775054
84	0x3dee3e2a	0.116329506
85	0xbb8bf720	-0.004271403
86	0xbbb8045a	-0.005615753
87	0x3d3c84f2	0.046025224
88	0x3c56e45e	0.01311597
89	0xbbbd8bbf	-0.0057844813
90	0x3d3de417	0.0463601
91	0x3d80e5b6	0.06293814
92	0x3d8c25db	0.06843158
93	0x3d103efb	0.035216313
94	0xbc845cd5	-0.016157547
95	0x3bd79e05	0.0065801167
96	0xbcff8263	-0.031190103
97	0xbcee8ee5	-0.029120872
98	0x3a747330	0.00093250256
99	0xbc64e13f	-0.0139697185
100	0x3d54b2cb	0.051928323
101	0xbe01b57e	-0.1266689
102	0x3c43af05	0.011943583
103	0x3d83b541	0.06431056
104	0x3d70f13b	0.058823805
105	0x3d23c7ca	0.039985456
106	0xbd51eb77	-0.051249947
107	0xbb139e9c	-0.0022524958
108	0x3d4f1be6	0.050563715
109	0x3d12f1a6	0.035874985
110	0xbccd8eba	-0.025092471
111	0x3ca4de67	0.020125581
112	0xbc05fb08	-0.008177526
113	0xbc5d46bb	-0.013505633
114	0xbd46c086	-0.04852345
115	0x3ca509d2	0.020146284
116	0xbd6dbce1	-0.058041457
117	0x3d5ca84a	0.05387143
118	0x3c1caf59	0.0095632905
119	0x3c01e86b	0.007928948
120	0xbc821cdc	-0.015882902
121	0xb83c3e85	-4.488092e-05
122	0x3bf3628d	0.0074275197
123	0xbbe69ca7	-0.0070377174
124	0x3d0b6e63	0.03404082
125	0xbcc39671	-0.023875447
126	0x3a2a8948	0.0006505442
127	0xbc6b5205	-0.014362817
128	0xbc23d97f	-0.010000586
129	0xbc9a7081	-0.018852474
130	0x3c68eb9d	0.014216331
131	0x3d4bb4e3	0.049733054
132	0x3c21cb36	0.009875109
133	0x3c7f409e	0.015579371
134	0x3c85fceb	0.016355952
135	0x3d1bf7b6	0.038078032
136	0x3c2df961	0.010618539
137	0xbd00e53d	-0.03146862
138	0x3c5690b5	0.013096024
139	0xbbdad889	-0.006678645
140	0xbda97330	-0.082739234
141	0xbd10d730	-0.03536147
142	0x3c25f385	0.01012886
143	0xbd7dda9b	-0.061976057
144	0xbcde191a	-0.027111579
145	0xbdc43f0d	-0.095823385
146	0xbcd4b958	-0.025967285
147	0xbcbddeba	-0.023177493
148	0xbd56ca35	-0.052438933
149	0x3d909d46	0.070612475
150	0xbb04e0f7	-0.002027569
151	0x3d2336bc	0.03984712
152	0x3d101b94	0.03518255
153	0xbd574f07	-0.0525656
154	0x3ce2f50e	0.027704742
155	0x3a84da69	0.0010135892
156	0x3d2ca2b8	0.04214737
157	0x3d05bfbf	0.032653566
158	0xbaefa107	-0.0018282243
159	0xbd9cf5df	-0.07664084
160	0xbc4d1fbd	-0.012519774
161	0xbb379946	-0.0028014942
162	0xbd63065d	-0.05542599
163	0xbe0c44b3	-0.13698082
164	0xbd81e229	-0.06341965
165	0xbd106818	-0.03525552
166	0xb818ee75	-3.6461704e-05
167	0xbb4a6fb3	-0.0030889332
168	0x3d622b74	0.05521722
169	0xbd9979bf	-0.07493924
170	0xbbf94555	-0.007607142
171	0xbbb5ef04	-0.0055521745
172	0xbdbcf09e	-0.092255816
173	0x3cff55e4	0.031168886
174	0x3bee14dd	0.0072656707
175	0xbc9195d8	-0.017771646
176	0xbc2e561f	-0.01064065
177	0x3ce05fb7	0.02738939
178	0x3c3cabf6	0.011515608
179	0x3c0d6448	0.008629866
180	0x3d95ccce	0.07314454
181	0x3c9cfc74	0.019163348
182	0x3b870289	0.0041201753
183	0x3b88e844	0.004178079
184	0x3c03c41c	0.008042362
185	0xbc88fab6	-0.01672111
186	0xbd7fcd9b	-0.06245194
187	0x3c9dbd7f	0.019255398
188	0xbd264f91	-0.040603224
189	0x3c832020	0.01600653
190	0xbc8aa2bf	-0.016923307
191	0xbd36dedb	-0.044646125
192	0xbb662eed	-0.0035123185
193	0xbc67eed1	-0.014156059
194	0x3d179f16	0.03701695
195	0x3d92c2d2	0.07166065
196	0x3dfe270c	0.12409791
197	0x3b38dfcf	0.0028209572
198	0x3ca0909d	0.019600207
199	0xbd0b758e	-0.034047656
200	0xbd384486	-0.044987224
201	0xbb556d98	-0.0032566544
202	0xbdc102ff	-0.094243996
203	0xbcc35139	-0.02384244
204	0x3bdcf5cd	0.006743169
205	0xbc2e5ae3	-0.010641786
206	0x3d862ac9	0.06551129
207	0xbced64cf	-0.028978733
208	0x3c8f4ec8	0.01749362
209	0x3d0957e6	0.033531092
210	0xbd01f6a4	-0.031729355
211	0x3ceb72cd	0.028741265
212	0xbd24b807	-0.040214565
213	0x3a5e8de1	0.00084897695
214	0x3bcfba2a	0.006339331
215	0xbd45c912	-0.04828746
216	0x3dc37634	0.0954403
217	0xbc49a7c2	-0.012308063
218	0x3bb8bf71	0.005638056
219	0x3d4da603	0.05020715
220	0xbd878898	-0.0661785
221	0x3bf4abb1	0.0074667563
222	0xbb6ed8f8	-0.0036445241
223	0xbacc0220	-0.0015564598
224	0x3d098d4a	0.03358201
225	0x3d3c4302	0.04596234
226	0xbb985bab	-0.0046495995
227	0x3d7952a7	0.06086984
228	0xbcc7654e	-0.024340298
229	0x3cf1f893	0.029537475
230	0x3d481af9	0.048853848
231	0xbca3a1cc	-0.019974612
232	0xbd290bf2	-0.041271158
233	0x3bb5dd0e	0.0055500334
234	0xbc74d5d8	-0.014943562
235	0xbe2e809a	-0.17041245
236	0xbcb69d71	-0.02229187
237	0x3b97c8c5	0.004632088
238	0x3cf30a07	0.029667867
239	0x3db665c4	0.08906129
240	0x3c40d9fe	0.011770723
241	0x3c588fcf	0.01321788
242	0x3d011087	0.031509902
243	0xbcfd5f20	-0.030929148
244	0x3db4b298	0.088231266
245	0xbd1a79b5	-0.037713725
246	0xbbfbeeb1	-0.0076883663
247	0x3b98d148	0.00466362
248	0x3c55fdf5	0.013061036
249	0x3bc3d682	0.005976499
250	0x3c5457be	0.0129603725
251	0xbaf705cd	-0.0018846333
252	0xbbd23e15	-0.006416092
253	0xbcdeb755	-0.027187029
254	0x3a45adef	0.0007540872
255	0xbc04d6bc	-0.008107837

bias f4 [12]
0	0xbdf3835d	-0.1189029
1	0xbde88f10	-0.11355412
2	0x3e10a413	0.1412509
3	0x3e754463	0.23951869
4	0x3dfe378e	0.1241294
5	0xbdce6516	-0.10077874
6	0x3e3b7aa9	0.1830851
7	0xbe260b81	-0.16215326
8	0x3d0ba551	0.034093205
9	0xbd56bfa2	-0.05242885
10	0xbd0f8fc9	-0.035049234
11	0xbd18d215	-0.037309725
